…
ensions]), keras.layers.Reshape([7, 7, 128]), keras.layers.BatchNormalization(), keras.layers.Conv2DTranspose(64, kernel_size=5, strides=2, padding=&quot;SAME&quot;, activation=&quot;selu&quot;), keras.layers.BatchNormalization(), keras.layers.Conv2DTranspose(1, kernel_size=5, strides=2, padding=&quot;SAME&quot;, activation=&quot;tanh&quot;), ]) generator.summary() ### END CODE HERE ### . Model: &#34;sequential&#34; _________________________________________________________________ Layer (type) Output Shape Param # ================================================================= dense (Dense) (None, 6272) 206976 reshape (Reshape) (None, 7, 7, 128) 0 batch_normalization (BatchN (None, 7, 7, 128) 512 ormalization) conv2d_transpose (Conv2DTra (None, 14, 14, 64) 204864 nspose) batch_normalization_1 (Batc (None, 14, 14, 64) 256 hNormalization) conv2d_transpose_1 (Conv2DT (None, 28, 28, 1) 1601 ranspose) ================================================================= Total params: 414,209 Trainable params: 413,825 Non-trainable params: 384 _________________________________________________________________ . Build the discriminator . Here is the recommended architecture for the discriminator: . Conv2D: 64 units, kernel size of 5, strides of 2, padding is SAME, activation is a leaky relu
…
el.compile(tf.keras.optimizers.SGD(momentum=0.9), loss = {&#39;bounding_box&#39; : &#39;mse&#39; }, metrics = { &#39;bounding_box&#39; : &#39;mse&#39; }) ### END CODE HERE ### return model . Run the cell below to define your model and print the model summary. . model = define_and_compile_model() # print model layers model.summary() . Model: &#34;model_1&#34; _________________________________________________________________ Layer (type) Output Shape Param # ================================================================= input_7 (InputLayer) [(None, 224, 224, 3)] 0 mobilenetv2_1.00_224 (Funct (None, 7, 7, 1280) 2257984 ional) global_average_pooling2d_2 (None, 1280) 0 (GlobalAveragePooling2D) flatten_1 (Flatten) (None, 1280) 0 dense_2 (Dense) (None, 1024) 1311744 dense_3 (Dense) (None, 512) 524800 bounding_box (Dense) (None, 4) 2052 ================================================================= Total params: 4,096,580 Trainable params: 4,062,468 Non-trainable params: 34,112 _________________________________________________________________ . Your expected model summary: . . . Train the Model . . 4.1 Prepare to Train the Model . You&#39;ll fit the model here, but first you&#39;ll set some of the parameters that go into fitt
…
